IEEE-NER-2023-EffiE/checkpoints/model.ckpt (torch, 240116 bytes, 14 tensors)

cnn1.weight f4 [48, 1, 3, 3]
0.21405564 -0.07925971 -0.024472931 0.12507859 0.08782136 -0.18340299 0.2205909 0.3855001
-0.34973776 0.015289879 -0.05395551 0.075374104 -0.05020625 0.3853898 -0.40141857 0.033332177
-0.2796564 0.31166735 -0.3346419 0.2271078 0.2712172 0.1212582 -0.07002061 -0.05964061
-0.010668296 -0.009890463 -0.009519335 0.38984394 0.34961537 -0.20130575 0.026554273 -0.0012504066
0.066636615 -0.11694481 -0.10454275 0.0101409685 -0.24097031 -0.1978015 -0.010889491 0.29415068
0.28059694 0.020238565 -0.26907104 -0.24350724 -0.009819397 -0.010176184 0.0068705184 0.01728018
-0.0085730385 0.028799854 0.02780471 0.0060428875 -0.4065832 -0.43122563 0.40819052 0.21349116
0.29491773 -0.14124207 -0.077547885 -0.09880399 -0.012399576 0.0008513045 -0.0039129844 -0.0015961339
-0.0186982 0.055700753 0.0014055355 -0.0031209541 0.061883237 0.005344699 -0.013081668 -0.53878564
-0.13876809 -0.081632264 -0.23594579 -0.1684592 -0.21431042 -0.081322156 -0.47134036 0.10777709
-0.40164322 0.18374608 0.15862589 0.012712492 -0.33580238 -0.2894947 -0.0019973682 0.06838449
0.069042005 0.01717554 -0.013881868 -0.016846092 -0.052901447 -0.03220602 -0.0016336836 -0.076656885
0.02815003 0.0024663806 0.55312747 -0.18808432 -0.220674 0.21862827 0.28807712 0.3026469
-0.31125447 -0.0875518 -0.08749529 0.07477317 0.0070574135 0.023571422 0.018389633 -0.23831594
-0.24651399 -0.3112013 0.23682898 0.27105418 0.32096422 -0.34360364 0.27825603 0.06715791
0.22198951 -0.19713163 -0.018059826 -0.1519524 0.19680707 -0.06892682 0.14079261 -0.31832597
-0.27486616 -0.016257893 0.0074568377 -0.0031572587 0.07892767 -0.32281426 -0.31757188 -0.34355584
0.34445673 -0.3305609 0.06816963 -0.10713921 0.08797257 0.015487945 0.0043208753 0.015364127
0.0438878 -0.049351852 0.01349469 -0.032799065 0.02607822 0.009388267 0.47981226 -0.2724002
0.1932822 -0.01910379 -0.13878807 0.30812618 0.06495073 0.043633122 -0.06128751 -0.014269722
-0.04117688 -0.36106497 -0.039114233 -0.2437665 -0.5117706 0.019201282 0.067385815 0.10987633
0.016253585 0.022831725 -0.0076088724 0.0014514535 -0.08178446 0.040641 0.038469885 -0.0105577465
-0.04671782 0.42642108 -0.36397484 -0.25012413 -0.0066533173 0.006535403 -0.000107165455 0.03577382
0.0325363 0.022558542 -0.2743692 -0.28804055 -0.26824152 -0.01576872 0.003346505 0.034327447
0.072989196 0.008239199 0.08239803 -0.2633743 0.01638196 -0.5479419 0.06900459 0.0073165894
-0.013814381 0.07437921 -0.0029569517 0.008803324 -0.5545363 0.005122443 -0.0010462775 0.052898232
-0.22824693 -0.242725 -0.066443674 0.20314075 0.26217327 0.34747255 0.17675312 -0.15741886
-0.007137724 0.0012143479 0.009490368 0.14830954 0.11822221 -0.117076755 -0.3879834 -0.3555453
0.36494505 -0.2010617 0.12248709 0.18952893 0.025548356 0.15461965 -0.0049595977 -0.19308646
0.02596318 0.19767025 -0.017951854 -0.3905687 -0.49865195 0.011223713 0.042204283 0.05689166
0.00027655938 0.030501565 0.011322385 0.024700811 0.113196984 -0.124586955 -0.052034836 -0.009539011
0.015872208 0.0018303273 -0.33693206 0.27507356 -0.27099568 -0.2702907 -0.22899732 0.013644527
00000000: 6731 5b3e ea52 a2bd 757b c8bc 9a14 003e
00000010: afdb b33d fecd 3bbe 95e2 613e 4560 c53e
00000020: d410 b3be 6782 7a3c 7400 5dbd bd5d 9a3d
00000030: 12a5 4dbd d051 c53e bc86 cdbe 5287 083d
00000040: 202f 8fbe dd92 9f3e 2f56 abbe f28e 683e
00000050: fbdc 8a3e 3856 f83d f766 8fbd b649 74bd
00000060: 14ca 2ebc 9c0b 22bc fcf6 1bbc a099 c73e
00000070: c900 b33e 1823 4ebe 5988 d93c afe4 a3ba
00000080: c778 883d c380 efbd 821a d6bd 4e26 263c
00000090: ecc0 76be 7a8c 4abe d669 32bc eb9a 963e
000000a0: 67aa 8f3e 59cb a53c aec3 89be f659 79be
000000b0: 89e1 20bc 02ba 26bc 1622 e13b 2a8f 8d3c
000000c0: ee75 0cbc aced eb3c b4c6 e33c 6a03 c63b
000000d0: ac2b d0be 9bc9 dcbe 59fe d03e 6d9d 5a3e
000000e0: 75ff 963e c3a1 10be 6dd1 9ebd bf59 cabd
000000f0: 9727 4bbc 142a 5f3a 7e38 80bb 5e35 d1ba
00000100: f82c 99bc 7926 643d f239 b83a ec88 4cbb
00000110: 4779 7d3d 9622 af3b 7e54 56bc dbed 09bf
00000120: 3919 0ebe d12e a7bd c69b 71be 9280 2cbe
00000130: 3174 5bbe 3b8c a6bd 8653 f1be 3cba dc3d
00000140: 2ea4 cdbe ef27 3c3e d36e 223e 0e48 503c
00000150: 4aee abbe a638 94be 47e6 02bb 2b0d 8c3d
00000160: e565 8d3d b8b3 8c3c c670 63bc d100 8abc
00000170: 30af 58bd 76ea 03bd 5321 d6ba 49fe 9cbd
00000180: e49a e63c 00a3 213b c399 0d3f 2d99 40be
00000190: 5df8 61be 17e0 5f3e d87e 933e 89f4 9a3e
000001a0: bf5c 9fbe 5c4e b3bd bb30 b3bd ad22 993d
000001b0: e041 e73b db18 c13c dba5 963c 1809 74be
000001c0: 2a6e 7cbe c755 9fbe 4c83 723e 9dc7 8a3e
000001d0: 6c55 a43e d1ec afbe 9377 8e3e 168a 893d
000001e0: 3851 633e e0dc 49be 33f2 93bc 6999 1bbe
000001f0: cb87 493e 8129 8dbd f02b 103e 9ffb a2be
00000200: 42bb 8cbe 462f 85bc 7d58 f43b 03ea 4ebb
00000210: d5a4 a13d e947 a5be c898 a2be 8de6 afbe
00000220: a25c b03e 473f a9be 859c 8b3d cd6b dbbd
00000230: f62a b43d 26c1 7d3c 2196 8d3b d2b9 7b3c
00000240: b2c3 333d 2b25 4abd d518 5d3c 5058 06bd
00000250: fea1 d53c 3fd1 193c f4a9 f53e 0a78 8bbe
00000260: c5eb 453e 8d7f 9cbc 761e 0ebe b7c2 9d3e
00000270: e304 853d a5b8 323d 9d08 7bbd 8dcb 69bc
00000280: 17a9 28bd 82dd b8be 3f36 20bd ed9d 79be
00000290: 6603 03bf 024c 9d3c 9301 8a3d d706 e13d
000002a0: 3d26 853c 9909 bb3c d953 f9bb b33e be3a
000002b0: 9c7e a7bd 2d77 263d 9992 1d3d 66fa 2cbc
000002c0: 2f5b 3fbd dd53 da3e e95a babe 4510 80be
000002d0: 1204 dabb ef26 d63b 04be e0b8 9287 123d
000002e0: c944 053d b1cc b83c 1f7a 8cbe 0d7a 93be
000002f0: f456 89be 672d 81bc 0a51 5b3b f09a 0c3d
00000300: 5c7b 953d b5fd 063c 4cc0 a83d ffd8 86be
00000310: 7633 863c ec45 0cbf 4752 8d3d 00c0 ef3b
00000320: b755 62bc 2154 983d 6bc9 41bb d13b 103c
00000330: 17f6 0dbf 2bda a73b 3f23 89ba d1ab 583d
00000340: 90b9 69be e78c 78be 9f13 88bd 2104 503e
00000350: 933b 863e ece7 b13e c5fe 343e 6932 21be
00000360: 92e3 e9bb c12a 9f3a 7d7d 1b3c 75de 173e
00000370: 7c1e f23d f0c5 efbd c3a5 c6be 090a b6be
00000380: 14da ba3e 1ee3 4dbe 83da fa3d df13 423e
00000390: c94a d13c 9d54 1e3e 1f84 a2bb 75b8 45be
000003a0: bcb0 d43c 126a 4a3e c40f 93bc 9ff8 c7be
000003b0: 4f4f ffbe aae3 373c 66de 2c3d 3b07 693d
000003c0: 2cff 9039 6bde f93c 8681 393c 5b59 ca3c
000003d0: d2d3 e73d 7227 ffbd 7b22 55bd 8349 1cbc
000003e0: 6f06 823c 98e7 ef3a 5c82 acbe 71d6 8c3e
000003f0: f2bf 8abe 8b63 8abe 467e 6abe 4b8d 5f3c

cnn1.bias f4 [48]
0.07892557 -0.27002153 -0.19634697 -0.08152978 0.20246086 0.13540897 0.12628661 0.19634768
0.21557269 0.24387647 -0.22526501 -0.2699178 0.31987882 -0.26308495 0.19111127 0.1164992
0.2135943 -0.14209695 0.2735587 0.20919427 0.03474469 0.004806669 -0.2922031 0.11241847
-0.0077251326 0.06266125 -0.2711942 -0.022844478 0.052510247 -0.26207143 0.19880758 0.1094033
-0.15043473 -0.21582547 0.07707347 -0.24238618 0.2594988 0.28590465 0.15900324 -0.1397563
-0.26869184 -0.11807025 0.030336104 -0.20359735 0.32674548 0.2381365 -0.013987126 -0.059939936
00000000: bba3 a13d 4340 8abe 2e0f 49be 16f9 a6bd
00000010: e651 4f3e a6a8 0a3e 4751 013e 5e0f 493e
00000020: 16bf 5c3e c1ba 793e dfab 66be aa32 8abe
00000030: 28c7 a33e 12b3 86be acb2 433e 2297 ee3d
00000040: 77b8 5a3e dd81 11be e30f 8c3e 0637 563e
00000050: 7350 0e3d 4381 9d3b a59b 95be a83b e63d
00000060: 1c23 fdbb 8b54 803d f7d9 8abe 5824 bbbc
00000070: fc14 573d 3a2e 86be 3794 4b3e d60e e03d
00000080: 900b 1abe 5a01 5dbe b2d8 9d3d 1534 78be
00000090: 07dd 843e 1862 923e bfd1 223e 471c 0fbe
000000a0: fa91 89be d1ce f1bd 6c83 f83c d37b 50be
000000b0: 2f4b a73e 0eda 733e 422a 65bc 9483 75bd

bn1.weight f4 [48]
0.92134523 1.0312055 1.0351201 0.98511815 1.0494165 1.0375673 0.9919244 0.99399704
0.9145362 1.1136457 0.9523716 1.1086041 1.0090643 0.95232725 0.9794035 1.1009926
0.9863518 0.90432996 1.0067558 0.98392457 1.0914197 0.954237 1.0260766 0.91631794
0.9950584 0.9035752 1.0336014 0.991357 1.0598927 1.0720627 1.0404662 0.97462434
1.0088115 1.0313427 1.0258514 0.9609368 0.88527054 1.0345017 0.9025929 1.0170102
0.9226864 1.0190227 1.0616932 1.0279304 1.0286323 0.90174013 1.0196761 0.9133291
00000000: 48dd 6b3f 8bfe 833f d17e 843f b430 7c3f
00000010: 4853 863f 01cf 843f c2ee 7d3f 9776 7e3f
00000020: 0b1f 6a3f f18b 8e3f a0ce 733f bde6 8d3f
00000030: 0529 813f b8cb 733f 30ba 7a3f 53ed 8c3f
00000040: 8d81 7c3f 2b82 673f 60dd 803f 7be2 7b3f
00000050: a4b3 8b3f e048 743f 7a56 833f d093 6a3f
00000060: 26bc 7e3f b450 673f 0d4d 843f 93c9 7d3f
00000070: 90aa 873f 5a39 893f ff2d 853f fb80 793f
00000080: bc20 813f 0a03 843f 194f 833f f4ff 753f
00000090: 17a1 623f 8d6a 843f 5410 673f 642d 823f
000000a0: 2d35 6c3f 566f 823f 90e5 873f 3993 833f
000000b0: 39aa 833f 71d8 663f bf84 823f f0cf 693f

bn1.bias f4 [48]
-0.16655765 -0.030552309 -0.00940284 -0.05145901 0.006171847 -0.017967409 -0.062434513 -0.0016553344
0.08971984 -0.026105411 -0.0052760136 0.009782455 -0.0021115926 -0.057771683 -0.014383145 -0.028171813
-0.027941322 -0.018726537 0.03575911 -0.018696876 -0.009438961 -0.0069212494 -0.011283127 -0.19969398
-0.024924837 -0.19520979 0.037190437 -0.015678423 0.06271871 -0.041231677 -0.0139668975 0.025181225
0.060650453 -0.002773823 -0.095336616 -0.009488613 -0.06494604 -0.002006684 -0.031549945 -0.012090583
-0.01557849 -0.028870296 -0.025819086 -0.02950878 -0.028372971 -0.0033803675 -0.035714846 -0.015201173
00000000: 178e 2abe d648 fabc 5f0e 1abc afc6 52bd
00000010: 353d ca3b 6330 93bc 55bb 7fbd cef7 d8ba
00000020: 09bf b73d 04db d5bc 69e2 acbb 9746 203c
00000030: a562 0abb 00a2 6cbd 48a7 6bbc 93c8 e6bc
00000040: 33e5 e4bc 6568 99bc 2578 123d 312a 99bc
00000050: dfa5 1abc a6cb e2bb dddc 38bc 947c 4cbe
00000060: 2c2f ccbc 13e5 47be 0055 183d 0970 80bc
00000070: ab72 803d 8ce2 28bd 6ad5 64bc db48 ce3c
00000080: 9c6c 783d 07c9 35bb d83f c3bd 2176 1bbc
00000090: 6e02 85bd 9282 03bb 843a 01bd 9517 46bc
000000a0: ec3c 7fbc 6681 ecbc 8c82 d3bc 66bc f1bc
000000b0: 6f6e e8bc 2889 5dbb bb49 12bd 570e 79bc

bn1.running_mean f4 [48]
0.07843618 -0.26994175 -0.19696881 -0.082608655 0.2028797 0.1369745 0.124896586 0.19722769
0.21971495 0.24445832 -0.22596894 -0.26995182 0.32048005 -0.26319662 0.19374363 0.11709984
0.21280098 -0.14179069 0.27523082 0.2098941 0.03611745 0.0058855843 -0.29155338 0.11172578
-0.0074951285 0.061526578 -0.26896414 -0.022675179 0.052779675 -0.261611 0.19865721 0.11032351
-0.14892502 -0.21508873 0.077245496 -0.24236779 0.25842074 0.2860504 0.15744229 -0.1397676
-0.2680355 -0.11807321 0.030462824 -0.20436445 0.3252493 0.23780084 -0.013882224 -0.05921123
00000000: 26a3 a03d ce35 8abe 31b2 49be ba2e a9bd
00000010: b2bf 4f3e 0b43 0c3e c8c9 ff3d 0ef6 493e
00000020: f5fc 603e 4853 7a3e 6764 67be 2037 8abe
00000030: f615 a43e b5c1 86be bb64 463e 0ad2 ef3d
00000040: 80e8 593e 9431 11be 0eeb 8c3e 7bee 563e
00000050: e4ef 133d dcdb c03b 7c46 95be 7cd0 e43d
00000060: b299 f5bb 4b03 7c3d abb5 89be 4cc1 b9bc
00000070: 802f 583d e1f1 85be cc6c 4b3e 4bf1 e13d
00000080: cd7f 18be 3840 5cbe e332 9e3d 432f 78be
00000090: b94f 843e 3375 923e 8d38 213e 3d1f 0fbe
000000a0: f33b 89be 5ed0 f1bd 2c8d f93c ea44 51be
000000b0: 1487 a63e 1082 733e 4572 63bc 7a87 72bd

bn1.running_var f4 [48]
0.9632339 0.4624278 0.3263271 0.50384223 0.3531354 0.5690886 0.40319565 0.45117566
1.2630279 0.24854867 0.4691689 0.37258437 0.4368818 0.37216797 0.81204665 0.47584265
0.587744 0.35368097 0.45619383 0.7244294 0.36224046 0.55963737 0.46835577 0.494957
0.5866091 0.39333245 0.59722674 0.33317807 0.5017684 0.40464506 0.6637917 0.60547644
0.5032659 0.25276825 0.38213915 0.34143063 0.3858203 0.49338433 0.570096 0.46862245
0.65650976 0.3299481 0.21665594 0.6135748 0.35275924 0.44984433 0.4323943 0.3727572
00000000: 7f96 763f 56c3 ec3e 5814 a73e cefb 003f
00000010: 2ace b43e caaf 113f a96f ce3e 7f00 e73e
00000020: e6aa a13f 8b83 7e3e e836 f03e 61c3 be3e
00000030: f9ae df3e cd8c be3e 4ae2 4f3f a6a1 f33e
00000040: 6476 163f ac15 b53e 3d92 e93e 3574 393f
00000050: 9577 b93e 6544 0f3f 54cc ef3e 016b fd3e
00000060: 042c 163f df62 c93e dae3 183f 5196 aa3e
00000070: e573 003f a32d cf3e 41ee 293f 8100 1b3f
00000080: 09d6 003f d76a 813e bea7 c33e ffcf ae3e
00000090: 3d8a c53e df9c fc3e d0f1 113f 48ef ef3e
000000a0: 0611 283f f5ee a83e 0edb 5d3e 3d13 1d3f
000000b0: dc9c b43e ff51 e63e c962 dd3e 08da be3e

cnn2.weight f4 [96, 48, 3, 3]
0.04424732 0.057538096 0.03839182 0.00030440334 0.021357885 -0.029489435 0.01612697 0.0012761492
-0.014458747 -0.0102752885 -0.009620736 -0.021132024 -0.023881732 -0.047861125 -0.046466127 -0.0562891
-0.05450498 -0.051806152 0.079999655 0.03466741 0.021103881 0.044587146 -0.030850265 0.03289304
-0.024709715 0.0075331563 -0.019570928 0.0459307 -0.039305754 -0.036214046 0.039600994 0.0089364275
-0.014718974 0.00089740043 0.0023738812 -0.0048015867 0.051233996 -0.02107751 -0.01888592 0.017035307
-0.010990308 -0.01224095 -0.026322804 -0.023708964 -0.013851211 -0.0078219855 0.028607888 0.0043381816
0.027273407 0.048115775 0.019037275 0.023446394 0.013307408 0.06511255 0.061582945 -0.044778436
0.019387934 0.03215267 -0.050349046 -0.00094102474 -0.026829123 -0.01175383 -0.0069594164 0.016515458
-0.010576173 0.037097912 0.008620264 -0.00573266 0.03657706 0.027114939 -0.009748073 0.02431737
0.012418344 -0.0161208 0.087938 0.0685331 0.046662875 0.018177299 0.06893244 0.07592451
0.0026501445 0.09556897 -0.04260121 -0.07541322 0.020172112 -0.037772812 -0.06232504 -0.048714235
-0.03911949 -0.064656034 -0.01950645 -0.004544843 0.0066140573 0.01677294 0.02966666 0.023916597
0.010134861 -0.03736066 -0.0026004862 0.059888016 -0.01317877 0.011499731 -0.052120678 -0.06764944
-0.039957248 -0.059971564 -0.03909582 -0.10527021 -0.013033504 -0.047049794 0.014216074 -0.058230978
0.011037853 -0.05854387 -0.0056229816 -0.0025504741 0.001967721 0.08767189 0.017175203 -0.0134370485
0.053534433 0.02964772 -0.0017150331 -0.056153867 -0.019755563 0.02416918 -0.011235619 0.006597461
0.057328686 0.018224375 0.0058437856 0.033472203 -0.00574048 0.02459833 0.0046460857 0.064524464
-0.00034477696 0.044180203 0.027942292 -0.024179753 0.0514828 -0.0085376715 0.0062206825 -0.0033720909
0.00028512022 -0.025196923 0.008816728 0.02779435 0.04615442 0.0055021713 0.03713493 -0.0104862945
-0.026820218 0.043988213 0.010855318 0.0015500123 0.000161985 0.007980396 -0.050283294 0.024458209
-0.0041768285 -0.0030881013 -0.01544795 0.01196911 0.08617092 -0.014197028 -0.046160206 0.073679924
-0.030314708 0.019752435 -0.017300192 0.02292958 0.03238308 0.00975078 -0.01694701 0.0097662825
0.03152753 0.017529842 0.012104472 -0.012753305 -0.0032737826 -0.009692154 -0.029473087 0.06313525
0.021043682 -0.0067341304 0.06333099 -0.004865516 0.018086806 -0.031970803 -0.010022243 0.012642827
0.02973674 0.054934066 -0.028429115 0.0018925669 2.933561e-05 -0.003828788 -0.03931081 0.01767614
0.030816976 0.03526703 0.010704169 0.025814775 0.053828713 0.019913694 0.0014537264 -0.01803595
0.020499662 0.00018952285 -0.032461446 -0.012884105 -0.0048000566 -0.015594052 0.005104189 -0.020914162
-0.038545825 -0.02764085 -0.02352676 0.0080356505 0.0062022954 0.002200487 -0.03098026 -0.02072463
0.045922782 -0.026521297 0.006491541 0.058197428 0.014832967 0.025806835 0.061865423 -0.0056734127
0.017436309 0.04633678 0.03341346 0.0050485283 0.050486688 0.01732447 -0.04684446 0.019928806
-0.02176058 -0.015337904 -0.0033406962 0.0018903095 0.023777956 -0.037152838 -0.035385452 0.012111252
-0.007736362 0.006934308 -0.04632601 -0.035223853 0.0460864 -0.009792502 -0.01694044 -0.024237614
00000000: ae3c 353d 11ad 6b3d be40 1d3d 5398 9f39
00000010: bbf6 ae3c d493 f1bc b51c 843c 7644 a73a
00000020: 61e4 6cbc af59 28bc 4ba0 1dbc 111d adbc
00000030: 9fa3 c3bc 070a 44bd 4453 3ebd 668f 66bd
00000040: 9d40 5fbd b032 54bd dcd6 a33d 6aff 0d3d
00000050: 0ce2 ac3c 03a1 363d b2b9 fcbc daba 063d
00000060: 076c cabc b2d8 f63b 3653 a0bc d421 3c3d
00000070: 12ff 20bd 2e55 14bd a734 223d 186a 123c
00000080: da27 71bc 863f 6b3a 1e93 1b3b a156 9dbb
00000090: bdda 513d beaa acbc a5b6 9abc a18d 8b3c
000000a0: b110 34bc 448e 48bc eca2 d7bc 4d39 c2bc
000000b0: 31f0 62bc c927 00bc 175b ea3c 4e27 8e3b
000000c0: 7b6c df3c 0c15 453d 0ff4 9b3c a712 c03c
000000d0: 5107 5a3c bb59 853d 663e 7c3d 9869 37bd
000000e0: 72d3 9e3c 85b2 033d cd3a 4ebd 1aaf 76ba
000000f0: c0c8 dbbc 2393 40bc d10b e4bb 6d4b 873c
00000100: af47 2dbc fbf3 173d 023c 0d3c 0ad9 bbbb
00000110: d4d1 153d 2620 de3c 62b6 1fbc 3935 c73c
00000120: 4f76 4b3c c50f 84bc d718 b43d 155b 8c3d
00000130: 9221 3f3d 8fe8 943c 732c 8d3d 4f7e 9b3d
00000140: 0cae 2d3b aab9 c33d 9b7e 2ebd 3f72 9abd
00000150: fc3f a53c aab7 1abd 8b48 7fbd 9488 47bd
00000160: c23b 20bd 626a 84bd fecb 9fbc e8ec 94bb
00000170: bcba d83b 6867 893c 7f07 f33c bdec c33c
00000180: b00c 263c 7e07 19bd eb6c 2abb 234d 753d
00000190: c5eb 57bc 5e69 3c3c 7e7c 55bd ca8b 8abd
000001a0: 36aa 23bd bea4 75bd f022 20bd e897 d7bd
000001b0: 7a8a 55bc 49b7 40bd 89ea 683c 9b83 6ebd
000001c0: 1cd8 343c b2cb 6fbd fd40 b8bb db25 27bb
000001d0: e1f4 003b 528d b33d 03b3 8c3c 1127 5cbc
000001e0: ec46 5b3d c6df f23c f6ca e0ba 9901 66bd
000001f0: 6bd6 a1bc 72fe c53c 9a15 38bc 842f d83b
00000200: 7cd1 6a3d 494b 953c 3a7d bf3b 261a 093d
00000210: a31a bcbb 7082 c93c 313e 983b 6725 843d
00000220: 2ec3 b4b9 4df6 343d 3ce7 e43c 9e14 c6bc
00000230: a1df 523d 97e1 0bbc ded6 cb3b 4cfe 5cbb
00000240: 307c 9539 c769 cebc 0a74 103c fab0 e33c
00000250: 6b0c 3d3d 8f4b b43b cc1a 183d b5ce 2bbc
00000260: 13b6 dbbc fc2c 343d 81da 313c c829 cb3a
00000270: 84da 2939 35c0 023c dbf5 4dbd 955c c83c
00000280: c7dd 88bb be61 4abb 6619 7dbc 161a 443c
00000290: 617a b03d a79a 68bc 7c12 3dbd 80e5 963d
000002a0: 8d56 f8bc dccf a13c 22b9 8dbc d1d6 bb3c
000002b0: 1fa4 043d bcc1 1f3c 75d4 8abc c202 203c
000002c0: 0323 013d be9a 8f3c d651 463c 3df3 50bc
000002d0: f58c 56bb d7cb 1ebc 8b71 f1bc 0e4d 813d
000002e0: cd63 ac3c fba9 dcbb aeb3 813d e86e 9fbb
000002f0: c82a 943c d1f3 02bd 5534 24bc dc23 4f3c
00000300: 779a f33c 8b02 613d 2de4 e8bc 0210 f83a
00000310: be15 f637 67ec 7abb 5f04 21bd 8dcd 903c
00000320: e273 fc3c 2974 103d 8a60 2f3c 8279 d33c
00000330: 7f7b 5c3d 0b22 a33c f78a be3a 21c0 93bc
00000340: e8ee a73c a7ba 4639 4bf6 04bd da17 53bc
00000350: cb49 9dbb 327e 7fbc 0a41 a73b 2d54 abbc
00000360: 3ae2 1dbd 106f e2bc 31bb c0bc f6a7 033c
00000370: a03c cb3b 0c36 103b 50ca fdbc b3c6 a9bc
00000380: 8719 3c3d 3143 d9bc feb6 d43b 6d60 6e3d
00000390: f905 733c db68 d33c 9966 7d3d 09e8 b9bb
000003a0: 97d6 8e3c a3cb 3d3d 8ddc 083d 206e a53b
000003b0: 21cb 4e3d 0cec 8d3c fadf 3fbd bc41 a33c
000003c0: 3e43 b2bc d54b 7bbc 95ef 5abb 43c4 f73a
000003d0: fdc9 c23c 932d 18bd 56f0 10bd 466e 463c
000003e0: 4f81 fdbb 3139 e33b 58c0 3dbd e346 10bd
000003f0: 18c5 3c3d bb70 20bc adc6 8abc f68d c6bc

cnn2.bias f4 [96]
0.027171008 -0.038460173 -0.021569906 -0.044781357 0.025875831 0.0422586 0.019687038 -0.004191612
0.0056340243 0.040773157 0.007899329 0.017819824 -0.020567378 -0.027201222 -0.0013383037 0.037313897
-0.041268807 0.04386878 0.0124221165 -0.0028466033 0.011442195 0.005006097 -0.0060413964 -0.002070877
-0.00014159524 0.030981282 -0.025459347 -0.002323464 -0.03540612 0.024482857 -0.030326918 0.03163719
-0.03776818 0.008395554 0.0013513097 0.044522624 0.0467276 -0.02119753 -0.027130406 -0.011063338
-0.03888078 0.046182647 -0.04124273 0.03585614 -0.0036394857 -0.043678876 0.02456141 -0.0018431693
-0.02747071 0.022860171 -0.025240924 -0.035218805 -0.003038187 -0.04180006 -0.015687605 0.045100328
0.040337566 -0.023049304 0.036823828 0.013712188 0.02098415 0.017221201 -0.013531226 0.030322913
0.034605302 -0.01806291 0.013009863 -0.0030263334 0.008615522 -0.025117632 -0.0039124833 -0.032545052
0.033330783 -0.019596465 0.040413395 -0.012816233 -0.012633778 -0.018256394 -0.009016198 -0.002039615
-0.015586948 -0.022061078 -0.04691117 -0.0077943862 0.0384831 -0.047772013 -0.04724676 -0.031881675
0.04159468 -0.022599438 -0.026422903 -0.018862763 -0.021698201 -0.039413087 0.035185322 0.0002749962
00000000: bc95 de3c 6a88 1dbd 5fb3 b0bc a86c 37bd
00000010: 8df9 d33c 5b17 2d3d b646 a13c ca59 89bb
00000020: 9f9d b83b c101 273d 306c 013c e1fa 913c
00000030: eb7c a8bc 19d5 debc 056a afba 75d6 183d
00000040: 7b09 29bd c0af 333d 2286 4b3c 148e 3abb
00000050: 0b78 3b3c 2f0a a43b e8f6 c5bb 8db7 07bb
00000060: 2f79 14b9 75cc fd3c 1f90 d0bc 4245 18bb
00000070: 0206 11bd 4690 c83c 2870 f8bc 0096 013d
00000080: cfb2 1abd 818d 093c 6e1e b13a 5b5d 363d
00000090: 7165 3f3d 71a6 adbc 9640 debc 0143 35bc
000000a0: 7441 1fbd 042a 3d3d 23ee 28bd e3dd 123d
000000b0: 7084 6ebb 9fe8 32bd 0335 c93c 8096 f1ba
000000c0: 410a e1bc 4145 bb3c 0ec6 cebc 9841 10bd
000000d0: 521c 47bb 8a36 2bbd 4b83 80bc 1fbb 383d
000000e0: 0139 253d e5d1 bcbc 95d4 163d 16a9 603c
000000f0: f4e6 ab3c 7a13 8d3c 13b2 5dbc c267 f83c
00000100: 4abe 0d3d abf8 93bc 5227 553c 7355 46bb
00000110: 1e28 0d3c 7ec3 cdbc 4a34 80bb f64d 05bd
00000120: dc85 083d c488 a0bc 8488 253d 2dfb 51bc
00000130: e8fd 4ebc 6f8e 95bc adb8 13bc 10ab 05bb
00000140: 6660 7fbc 6fb9 b4bc ed25 40bd 0d68 ffbb
00000150: 74a0 1d3d 96ac 43bd d285 41bd 5c96 02bd
00000160: 2f5f 2a3d 7522 b9bc d874 d8bc 1586 9abc
00000170: 6dc0 b1bc 9e6f 21bd 7c1e 103d 5d2d 9039

bn2.weight f4 [96]
1.1398069 1.026736 1.3267109 1.2235847 1.0167209 1.0614649 1.1376035 1.0284568
1.2608688 1.1206275 1.1727321 1.1189263 1.0813094 1.2915571 1.1504864 1.0257776
1.002412 1.1036913 1.1863145 1.1449404 1.0499543 1.1036578 1.1609395 1.1290783
1.2802696 1.0468358 1.0775017 1.0812787 1.0990369 1.0435948 1.1803467 1.04789
1.151947 1.0980119 1.3356887 1.19606 1.1591027 1.2117771 1.2368015 1.0616047
1.2481918 1.0461378 1.0459514 1.1201938 1.0787256 1.0701702 1.0225794 1.0363876
1.0082307 1.2145418 1.0568737 1.1027862 1.0421089 1.1518462 1.007262 1.2595493
1.0531845 1.1295272 1.0607278 1.0991817 1.0552223 1.1755315 1.1066179 1.0010577
1.2459388 1.0632305 1.2381415 1.0740077 1.0732354 1.0672898 1.1449931 1.0386442
1.0568539 1.1069247 1.1022896 1.294018 1.0751069 1.2017367 1.2858406 1.1677727
1.2979914 1.2479988 1.1453435 1.0227926 1.0869284 1.2805545 1.0541438 1.0609128
1.2593019 1.0270962 1.095524 1.1240699 1.255851 1.1823982 1.1150501 1.0652753
00000000: 31e5 913f 166c 833f aad1 a93f 6c9e 9c3f
00000010: e923 823f 15de 873f fe9c 913f 79a4 833f
00000020: 2664 a13f b970 8f3f 161c 963f fa38 8f3f
00000030: 5968 8a3f be51 a53f 2343 933f ae4c 833f
00000040: 094f 803f c245 8d3f 27d9 973f 688d 923f
00000050: e764 863f a944 8d3f aa99 943f a385 903f
00000060: e0df a33f b7fe 853f 93eb 893f 5767 8a3f
00000070: 3ead 8c3f 8494 853f 9a15 973f 4221 863f
00000080: 0073 933f a78b 8c3f d9f7 aa3f 7e18 993f
00000090: 7a5d 943f 831b 9b3f 834f 9e3f aae2 873f
000000a0: c0c4 9f3f d8e7 853f bce1 853f 8362 8f3f
000000b0: ae13 8a3f 56fb 883f e2e3 823f 59a8 843f
000000c0: b40d 813f 1b76 9b3f a347 873f 1928 8d3f
000000d0: d363 853f b26f 933f f6ed 803f e938 a13f
000000e0: c0ce 863f 5994 903f eec5 873f fcb1 8c3f
000000f0: 8611 873f d177 963f a8a5 8d3f a922 803f
00000100: ec7a 9f3f f017 883f 6c7b 9e3f 1679 893f
00000110: c75f 893f f49c 883f 228f 923f 4bf2 843f
00000120: fd46 873f b5af 8d3f d317 8d3f 62a2 a53f
00000130: 1a9d 893f 82d2 993f 6d96 a43f 9379 953f
00000140: 9524 a63f 6dbe 9f3f 9e9a 923f deea 823f
00000150: 7820 8b3f 36e9 a33f 2fee 863f fecb 873f
00000160: ce30 a13f e377 833f 213a 8c3f 86e1 8f3f
00000170: babf a03f d358 973f f6b9 8e3f f15a 883f

bn2.bias f4 [96]
-0.055993516 -0.21389546 -0.25179452 -0.2965547 -0.13479075 -0.12704372 0.08121995 -0.31534156
-0.31437883 0.13162115 -0.0679319 0.053727917 0.15109299 -0.29556116 0.04329074 0.11504608
0.21848746 0.105290644 0.106337145 -0.06989182 0.14006661 0.023545135 0.056368988 0.08550605
-0.3181054 0.08787518 -0.088458784 -0.064436875 0.12170076 -0.29730064 -0.06759463 -0.13772424
-0.07960158 -0.13744853 -0.2144501 -0.08645539 -0.08553938 -0.09675247 -0.261039 0.07955559
-0.078660145 -0.27684554 -0.038147528 -0.05065242 0.021126144 0.20704168 -0.27446416 0.20932436
0.04124047 -0.16212629 -0.17160253 0.20131351 0.16878873 0.035066944 0.16244712 -0.29439214
0.014083109 0.05835518 -0.0681796 0.011308559 -0.11805725 -0.019252356 0.16321428 0.22141336
-0.29970428 0.14714853 -0.31198356 -0.23363465 0.21346672 0.03687073 -0.109271824 -0.13688926
0.2513646 0.01346788 0.049832787 -0.06647918 0.06731637 -0.002980886 -0.33796513 0.007762976
-0.10005791 -0.21550217 0.11641701 0.21628457 -0.01066742 -0.2077805 0.14498664 0.15298337
-0.12798575 -0.19588584 -0.054800373 -0.1341035 -0.33182415 -0.2063804 0.06239235 -0.06648174
00000000: 7559 65bd 6907 5bbe 36eb 80be 05d6 97be
00000010: 9606 0abe c017 02be a556 a63d 7374 a1be
00000020: 43f6 a0be b2c7 063e e11f 8bbd ce11 5c3d
00000030: 1fb8 1a3e cb53 97be a251 313d 479d eb3d
00000040: 2dbb 5f3e 9fa2 d73d 4ac7 d93d 7123 8fbd
00000050: 9f6d 0f3e bae1 c03c 2be3 663d cc1d af3d
00000060: b6de a2be e7f7 b33d e129 b5bd 7bf7 83bd
00000070: 403e f93d ca37 98be 0e6f 8abd 9507 0dbe
00000080: 2706 a3bd 4fbf 0cbe cf98 5bbe 860f b1bd
00000090: 452f afbd 2926 c6bd e7a6 85be 0bee a23d
000000a0: 9218 a1bd b3be 8dbe 9540 1cbd e978 4fbd
000000b0: bc10 ad3c bc02 543e 9186 8cbe 2059 563e
000000c0: c4eb 283d 6f04 26be 93b8 2fbe 2125 4e3e
000000d0: f4d6 2c3e 5ba2 0f3d 8a58 263e 91ba 96be
000000e0: d7bc 663c d705 6f3d bfa1 8bbd 8947 393c
000000f0: 00c8 f1bd 1eb7 9dbc a521 273e 2fba 623e
00000100: d772 99be 1bae 163e 4fbc 9fbe ec3d 6fbe
00000110: 0597 5a3e c305 173d e8c9 dfbd b32c 0cbe
00000120: dcb2 803e 62a8 5c3c 771d 4c3d 3c26 88bd
00000130: 2add 893d f85a 43bb c409 adbe 9060 fe3b
00000140: 29eb ccbd 9aac 5cbe 0b6c ee3d b479 5d3e
00000150: 67c6 2ebc 69c4 54be 6177 143e aca7 1c3e
00000160: b20e 03be 4c96 48be 5b76 60bd 6e52 09be
00000170: dbe4 a9be 6255 53be 1f8f 7f3d 9427 88bd

bn2.running_mean f4 [96]
-0.36485517 3.6479285 -3.023299 -3.9975448 1.2201451 2.6215105 -0.69475806 2.3042512
-2.287707 -1.0460956 0.024954828 -0.69844633 -0.8007036 -2.3406239 -0.32571694 0.09276864
0.22497907 -1.9242942 -0.5720546 -0.5367059 0.2940397 -0.3585214 -1.0139391 -0.46531615
-2.4458385 0.1929261 2.9377737 -0.2681144 -0.0013690698 1.3763585 -2.203758 2.892264
-1.2004671 2.5942402 -2.7667043 -1.5501243 -0.9175254 -1.0578161 -2.6694999 -0.23943716
-1.6196078 1.9910544 1.1008797 -0.5081973 0.04826905 0.0996974 -0.072307624 -1.384466
0.18923089 -1.5261922 0.07307011 0.08545892 0.1287655 -0.8688137 0.45797622 -1.5193424
2.8083353 -0.8545843 1.7709872 -0.9737992 2.3067036 -1.8267729 -0.32305905 -1.3509387
-2.4456043 0.0733641 -2.6859396 2.4546878 -0.26536065 -0.19011995 -1.1447835 3.346503
0.05747439 -0.92121327 -0.36949039 -0.9782629 -1.4584078 -0.94956875 -3.175448 -1.158735
-0.6318959 -2.9678144 -0.75085634 -0.4574517 -0.09210229 -1.7905555 0.21515475 -0.36503923
-2.4253807 2.780253 -0.39436543 1.8019354 -1.9332169 -2.6835043 -2.1561868 0.89756846
00000000: 4cce babe a977 6940 bb7d 41c0 c6d7 7fc0
00000010: b72d 9c3f d4c6 2740 aadb 31bf da78 1340
00000020: cb69 12c0 76e6 85bf 116e cc3c 61cd 32bf
00000030: e9fa 4cbf c8cc 15c0 5fc4 a6be 7cfd bd3d
00000040: ea60 663e 464f f6bf 2c72 12bf 8f65 09bf
00000050: 5f8c 963e 1e90 b7be c2c8 81bf eb3d eebe
00000060: 9e88 1cc0 6b8e 453e 7c04 3c40 4a46 89be
00000070: 5c72 b3ba 842c b03f 5f0a 0dc0 da1a 3940
00000080: e8a8 99bf 0808 2640 af11 31c0 796a c6bf
00000090: f2e2 6abf 8566 87bf 16d9 2ac0 042f 75be
000000a0: 4f4f cfbf dfda fe3f a0e9 8c3f 3819 02bf
000000b0: c4b5 453d 272e cc3d 0516 94bd 2f36 b1bf
000000c0: bec5 413e 445a c3bf c8a5 953d 1605 af3d
000000d0: 1adb 033e 936a 5ebf dc7b ea3e d079 c2bf
000000e0: c4bb 3340 09c6 5abf b5af e23f e84a 79bf
000000f0: 08a1 1340 b2d3 e9bf ff67 a5be 8feb acbf
00000100: c884 1cc0 eb3f 963d 6fe6 2bc0 9b19 1d40
00000110: 5add 87be ceae 42be 4488 92bf 1b2d 5640
00000120: 446a 6b3d a2d4 6bbf d82d bdbe 706f 7abf
00000130: 1bad babf f016 73bf 8a3a 4bc0 6e51 94bf
00000140: eec3 21bf acf0 3dc0 1f38 40bf 1c37 eabe
00000150: 20a0 bcbd ec30 e5bf 8751 5c3e 6ce6 babe
00000160: 7039 1bc0 aaef 3140 44ea c9be d2a5 e63f
00000170: a773 f7bf 89be 2bc0 f7fe 09c0 0cc7 653f

bn2.running_var f4 [96]
3.098888 6.2941737 6.107541 7.5336385 2.775899 5.972153 3.489162 4.6237354
6.495387 4.1962786 4.0466647 3.4417114 3.0884209 6.3648067 4.0865583 2.2824118
1.5470798 5.6254625 5.1035748 4.7175193 1.9497782 3.7368994 4.3039136 4.5633044
5.5715556 1.6250615 5.3034754 3.022268 2.2798467 5.1147556 5.0349026 4.837031
3.2565675 4.730551 6.3496666 4.9781775 4.3043876 4.5546846 5.263055 2.66306
5.4174843 3.8547068 2.9958062 2.226996 2.85828 2.3138566 4.550353 3.9711907
1.7388141 5.4897475 3.0527115 3.0403883 3.160395 3.5497983 1.1885457 4.9561844
3.8863385 5.0937934 4.125038 2.7560346 4.0002356 5.7323985 4.1366687 2.6018345
5.905801 2.3764565 6.337651 4.586691 2.319393 2.5367713 5.214327 5.5108056
1.9732147 3.01434 2.564967 5.68578 5.5541387 4.0230885 7.4374304 4.14685
5.4859614 5.0480285 5.1176004 2.2451315 3.4923837 4.454781 1.8428234 3.3999412
5.1254935 5.447488 3.2706978 5.0061374 4.9343753 5.356919 4.585673 3.494977
00000000: 2e54 4640 df69 c940 fa70 c340 9113 f140
00000010: 54a8 3140 e11b bf40 6e4e 5f40 a4f5 9340
00000020: 36da cf40 ea47 8640 477e 8140 0045 5c40
00000030: b0a8 4540 7fac cb40 16c5 8240 0913 1240
00000040: b606 c63f ca03 b440 7c50 a340 ebf5 9640
00000050: 5592 f93f 5c29 6f40 a9b9 8940 9706 9240
00000060: 2f4a b240 0402 d03f 12b6 a940 d76c 4140
00000070: 02e9 1140 14ac a340 ec1d a140 f5c8 9a40
00000080: 9a6b 5040 ac60 9740 7830 cb40 3b4d 9f40
00000090: 8bbd 8940 fabf 9140 f26a a840 936f 2a40
000000a0: 085c ad40 84b3 7640 4abb 3f40 1a87 0e40
000000b0: 0fee 3640 3a16 1440 7e9c 9140 fd27 7e40
000000c0: 7691 de3f 03ac af40 a05f 4340 b995 4240
000000d0: e943 4a40 e52f 6340 4422 983f 1099 9e40
000000e0: c5b9 7840 5b00 a340 5000 8440 df62 3040
000000f0: ee01 8040 cf6f b740 975f 8440 7584 2640
00000100: 52fc bc40 dd17 1840 09ce ca40 2cc6 9240
00000110: ef70 1440 765a 2240 c4db a640 8558 b040
00000120: 4d92 fc3f f2ea 4040 6b28 2440 e9f1 b540
00000130: 81bb b140 24bd 8040 6eff ed40 ffb2 8440
00000140: ff8c af40 7389 a140 62c3 a340 3cb0 0f40
00000150: 3783 5f40 918d 8e40 a3e1 eb3f a398 5940
00000160: 0b04 a440 d251 ae40 1d53 5140 4732 a040
00000170: 67e6 9d40 e16b ab40 d5bd 9240 b4ad 5f40

classifier.weight f4 [7, 2304]
-0.1556187 -0.07860162 -0.06578081 -0.09896473 -0.06190973 -0.120949626 -0.12425128 -0.09258266
-0.044680223 -0.044885974 -0.08235512 -0.08921346 -0.07313678 -0.024755316 -0.022571411 -0.04759931
-0.07998271 -0.03862984 -0.021988288 -0.030765073 -0.032336287 -0.024682984 -0.017883474 -0.012379562
-0.03481283 0.004786914 0.004366158 -0.024059335 -0.01412771 -0.012455003 -0.03713825 -0.0008421845
0.017837558 0.0038668273 0.010074521 -0.004141841 -0.0064640073 0.0009962365 -0.013585001 0.006863552
-0.009956933 -0.03567324 -0.026833333 -0.037634864 0.00300483 -0.00521192 -0.03261402 -0.043868795
0.14557746 0.06262714 0.07296887 0.09667774 0.07788803 0.13536777 0.104517765 0.061902605
0.09266217 0.05008381 0.08311995 0.09715961 0.11515513 0.09904896 0.07066045 0.07333614
0.05684233 0.077472255 0.13507406 0.080216736 0.08692171 0.10744091 0.11160044 0.12000421
0.1577098 0.06993805 0.064653784 0.09666599 0.07232612 0.12024244 0.12685786 0.054303136
0.086827666 0.087453306 0.06436366 0.12535514 0.13105156 0.07261994 0.08014975 0.08511265
0.06955999 0.10306796 0.11595255 0.08641877 0.08702875 0.087653786 0.06537095 0.13066202
0.0013035337 0.0039905277 -0.017294869 -0.01878435 0.014166542 -0.006731955 -0.035930514 0.0035961496
-0.0135938255 -0.056762554 0.009701484 -0.0377114 -0.02819194 -0.005881934 -0.00012659894 0.001652075
-0.011907441 -0.04718879 -0.056558553 -0.041660395 -0.00663478 -0.024234904 -0.038693726 -0.12054882
-0.0056762807 0.0045465264 -0.000118974844 -0.0095845405 0.009115551 -0.02274295 -0.054659564 -0.015984215
-0.025787167 -0.012001434 -0.010614399 -0.070565894 -0.026484715 0.017161323 -0.010094831 -0.006984802
0.009295019 -0.033528443 0.021495635 0.0016402032 -0.0313811 0.004662783 0.040160235 -0.05143756
-0.084373675 -0.042405553 -0.07478816 -0.095343135 -0.06668797 -0.054329813 0.022240262 0.009162028
0.00023745991 -0.0033351253 -0.003263112 0.014008811 0.0036234723 0.03512585 -0.000666775 0.042598147
0.028216833 -0.012710192 -0.052754562 -0.02408951 -0.0058398605 -0.014108362 -0.026952755 -0.10086751
-0.025409585 -0.025279053 0.012135938 -0.004188847 -0.009937554 -0.00790022 -0.019257748 -0.022424387
-0.0066684154 0.0029753884 0.0010389737 0.0075836307 -0.0246921 -0.009479039 0.011313348 0.024812015
-0.01935338 0.0012274544 -0.055161905 -0.03749605 -0.058639202 -0.009923755 -0.033142887 -0.039886743
0.057882402 0.05638307 0.06535348 0.053274006 0.04488886 0.11521151 0.08851799 0.0859042
0.044593055 0.047902796 0.044195183 0.124876626 0.08595824 0.10657471 0.06822806 0.08402017
0.077436805 0.14188702 0.13199767 0.095192775 0.07212592 0.091078766 0.09194694 0.13313524
-0.038119037 -0.048887342 -0.044852324 -0.077274136 -0.043518294 -0.051663212 -0.0032783092 -0.017851569
0.02218739 0.01768573 0.015703255 -0.00973467 -0.029244028 0.0041329986 -0.014600437 0.0061619068
-0.01883752 -0.0056113466 -0.0670012 -0.041299324 -0.032213673 -0.06806165 -0.0456174 -0.07646117
-0.11851061 -0.06356512 -0.09663214 -0.07435788 -0.06095084 -0.117620446 -0.08819047 -0.064674936
-0.047736138 -0.072858535 -0.0878532 -0.048869494 -0.048752073 0.018112525 -0.017851083 -0.0033495023
00000000: 825a 1fbe e3f9 a0bd 17b8 86bd 05ae cabd
00000010: 0f95 7dbd 70b4 f7bd 7577 febd fa9b bdbd
00000020: 9c02 37bd 5bda 37bd cda9 a8bd 8cb5 b6bd
00000030: bcc8 95bd a9cb cabc aee7 b8bc 7ef7 42bd
00000040: facd a3bd 533a 1ebd c820 b4bc 0907 fcbc
00000050: 0e73 04bd f833 cabc 5d80 92bc a5d3 4abc
00000060: e697 0ebd 8cdb 9c3b fd11 8f3b 1518 c5bc
00000070: e977 67bc 1210 4cbc 471e 18bd 0cc6 5cba
00000080: 1220 923c 996a 7d3b 9b0f 253c 48b8 87bb
00000090: 06d0 d3bb 2694 823a a093 5ebc a6e7 e03b
000000a0: 6722 23bc 1a1e 12bd 94d1 dbbc 0427 1abd
000000b0: afec 443b c1c8 aabb 4796 05bd c4af 33bd
000000c0: 4212 153e a842 803d b470 953d fbfe c53d
000000d0: c283 9f3d d99d 0a3e 690d d63d 968d 7d3d
000000e0: aac5 bd3d ae24 4d3d cb3a aa3d 9efb c63d
000000f0: 74d6 eb3d 2eda ca3d 6db6 903d 4231 963d
00000100: 81d3 683d c6a9 9e3d db50 0a3e ac48 a43d
00000110: 0204 b23d fb09 dc3d c68e e43d c4c4 f53d
00000120: ae7e 213e ae3b 8f3d 3469 843d d2f8 c53d
00000130: b81f 943d ab41 f63d 07e7 013e f76c 5e3d
00000140: b4d2 b13d b81a b33d 18d1 833d 195d 003e
00000150: 6132 063e c3b9 943d 8d25 a43d 8b4f ae3d
00000160: 7875 8e3d 4b15 d33d 8878 ed3d 53fc b03d
00000170: 213c b23d d483 b33d 34e1 853d 44cc 053e
00000180: 55db aa3a f9c2 823b f8ad 8dbc a3e1 99bc
00000190: c91a 683c bb97 dcbb e02b 13bd 61ad 6b3b
000001a0: a3b8 5ebc da7f 68bd f9f2 1e3c 4577 1abd
000001b0: c9f2 e6bc 3dbd c0bb a5bf 04b9 708a d83a
000001c0: 6d17 43bc 0849 41bd f1a9 67bd 17a4 2abd
000001d0: 9268 d9bb 4788 c6bc 507d 1ebd 4de2 f6bd
000001e0: 1800 babb 07fb 943b 2282 f9b8 7a08 1dbc
000001f0: 6459 153c 6c4f babc b5e2 5fbd 54f1 82bc
00000200: 9c3f d3bc aaa1 44bc 04e8 2dbc da84 90bd
00000210: 79f6 d8bc e795 8c3c ca64 25bc c4e0 e4bb
00000220: 234a 183c 1f55 09bd 9d17 b03c 16fc d63a
00000230: 7889 00bd 42ca 983b 0f7f 243d 31b0 52bd
00000240: 1bcc acbd 72b1 2dbd 892a 99bd 4343 c3bd
00000250: b493 88bd f088 5ebd 3631 b63c 551c 163c
00000260: a9fe 7839 1e92 5abb efd9 55bb 3685 653c
00000270: c777 6d3b 20e0 0f3d 83ca 2eba 657b 2e3d
00000280: fd26 e73c 693e 50bc 2b15 58bd 5d57 c5bc
00000290: 4d5c bfbb c226 67bc 06cc dcbc a093 cebd
000002a0: c327 d0bc 0416 cfbc d0d5 463c 9842 89bb
000002b0: 1fd1 22bc ed6f 01bc 6dc2 9dbc 59b3 b7bc
000002c0: b982 dabb bcfe 423b 2c2e 883a 1b80 f83b
000002d0: 1647 cabc f94d 1bbc 9f5b 393c 9142 cb3c
000002e0: fb8a 9ebc 89e2 a03a 73f1 61bd 7595 19bd
000002f0: a92f 70bd 3f97 22bc d6c0 07bd 4860 23bd
00000300: 1916 6d3d eff1 663d 0cd8 853d d835 5a3d
00000310: 62dd 373d 03f4 eb3d ec48 b53d 8bee af3d
00000320: 35a7 363d b935 443d 0206 353d 51bf ff3d
00000330: e00a b03d d743 da3d 27bb 8b3d c412 ac3d
00000340: 3097 9e3d d54a 113e 662a 073e 6ef4 c23d
00000350: c1b6 933d 8187 ba3d ad4e bc3d 9b54 083e
00000360: b522 1cbd 183e 48bd 12b7 37bd e741 9ebd
00000370: 3d40 32bd ce9c 53bd e7d8 56bb 743d 92bc
00000380: 54c2 b53c aae1 903c 1da4 803c 2a7e 1fbc
00000390: 2c91 efbc 1b6e 873b ac36 6fbc d2e9 c93b
000003a0: 2551 9abc 63df b7bb ed37 89bd 7b29 29bd
000003b0: 7cf2 03bd e863 8bbd 50d9 3abd ad97 9cbd
000003c0: b1b5 f2bd 6e2e 82bd 12e7 c5bd f248 98bd
000003d0: 97a7 79bd fde2 f0bd 359d b4bd 4b74 84bd
000003e0: f886 43bd db36 95bd 61ec b3bd 612b 48bd
000003f0: 41b0 47bd b860 943c 6f3c 92bc 5383 5bbb

classifier.bias f4 [7]
-0.099739626 -0.055925198 0.12637678 0.25301248 -0.09573302 0.03769839 -0.17694372
00000000: 4a44 ccbd d211 65bd ea68 013e da8a 813e
00000010: ac0f c4bd a169 1a3d bc30 35be
